MLP_TORCH/model.pth (torch, 816064 bytes, 4 tensors)

in_function.weight f4 [256, 784]
0	0x3b6133f0	0.0034363233
1	0x3c4ae918	0.012384675
2	0x3c8c91ae	0.01715931
3	0x3cbb48d2	0.022861872
4	0x3a31ebc0	0.00067871436
5	0x3b9cf228	0.0047896095
6	0x3caf0dc2	0.021368865
7	0xbc4ecc60	-0.012621969
8	0xbc10b1ea	-0.0088314805
9	0x3cc64fa8	0.024207905
10	0xbd01df2f	-0.031706985
11	0x3b382a90	0.002810154
12	0x3e1f032d	0.15528555
13	0x3e11e9a8	0.14249289
14	0xbca670e8	-0.02031751
15	0xbce3e53a	-0.027819265
16	0xbd010e34	-0.031507686
17	0x3c6171b0	0.013760015
18	0x3c80a094	0.01570157
19	0x3be537e8	0.00699519
20	0x3d0fb811	0.03508765
21	0x3cbf35da	0.023341108
22	0x3ca1e7ae	0.019763794
23	0xbcf53eb5	-0.029937128
24	0xbc99151c	-0.018686824
25	0x3c0b0114	0.008484144
26	0x3b268a50	0.002541203
27	0x3c2fe8c0	0.010736644
28	0x3d017e81	0.031614784
29	0xbc990095	-0.018677035
30	0xbce28c9e	-0.027654942
31	0xbccb100e	-0.024787929
32	0xbcd104dd	-0.025515014
33	0x3d02b1d6	0.03190788
34	0xbe10c977	-0.14139353
35	0xbe0806ad	-0.13283797
36	0xbda34177	-0.07971471
37	0xbce253b5	-0.027627805
38	0xbc831831	-0.016002746
39	0x3d5534ff	0.052052494
40	0x3ddaadd7	0.106776886
41	0x3d5b75ef	0.053579267
42	0x3c4aeeea	0.012386063
43	0xbd235416	-0.039875112
44	0xbbdaf046	-0.006681475
45	0xbc2b93ea	-0.010472277
46	0xbbd566a4	-0.00651248
47	0xbbda8617	-0.006668817
48	0x3c969d21	0.018385472
49	0xbc66c947	-0.014086074
50	0xbcadf4bb	-0.02123486
51	0xbc3d5010	-0.011554733
52	0xbcf5cfc8	-0.030006304
53	0x3cce1916	0.025158446
54	0x3c97812e	0.018494215
55	0xbcf83965	-0.030300805
56	0xbc2a0792	-0.010377781
57	0x3c5140dc	0.012771811
58	0xbd09e6e3	-0.033667456
59	0xbcb004bc	-0.021486633
60	0xbbb9016c	-0.0056459215
61	0x3d01e1aa	0.03170935
62	0xbd608523	-0.05481447
63	0xbe523cb5	-0.2053097
64	0xbe6d07ea	-0.2314755
65	0xbe0d86ef	-0.13821004
66	0xbe84a2dc	-0.25905502
67	0xbe932b21	-0.28743842
68	0xbdf66fc4	-0.12033036
69	0xbe411be2	-0.18858293
70	0xbe9e8b5a	-0.30965692
71	0xbe56d177	-0.20978342
72	0x3d47152f	0.048604187
73	0x3ec91ee2	0.39281374
74	0x3f16f238	0.58963346
75	0x3cc24338	0.023713693
76	0x3d168361	0.036746386
77	0xbc25de82	-0.010123851
78	0xbc9b80a8	-0.018982247
79	0xbd062019	-0.032745454
80	0xbceca9cf	-0.028889565
81	0x3c2bb0a4	0.010479126
82	0xbb7ed410	-0.0038883723
83	0x3d11ea89	0.03562406
84	0x3b9fefd0	0.004880883
85	0xbce24fb0	-0.027625889
86	0x3cdc30dc	0.026878767
87	0xbca91e58	-0.020644352
88	0x3e017362	0.12641671
89	0x3e26722e	0.16254494
90	0x3e2692c9	0.16266932
91	0xbd83b315	-0.064306416
92	0xbe571c29	-0.21006836
93	0xbebc7687	-0.3680918
94	0xbe444ac7	-0.1916915
95	0x3de60ce2	0.11232926
96	0x3e629121	0.22125675
97	0xbe77fc3e	-0.24217317
98	0xbee081a0	-0.43848896
99	0xbe1e7644	-0.15474802
100	0xbe4dbc49	-0.20091356
101	0x3ceb7a6f	0.028744904
102	0x3e268847	0.16262923
103	0xbd66838a	-0.05627779
104	0x3e214c2e	0.15751716
105	0x3ea310f4	0.31848872
106	0x3e40ea2a	0.18839327
107	0x3d960f69	0.07327158
108	0xbe534abb	-0.20633976
109	0xbe03ff87	-0.12890445
110	0xbb0c99a4	-0.0021453882
111	0x3c16ee1c	0.009212043
112	0x3c73db94	0.0148838945
113	0x3cb1dbe3	0.021711295
114	0x3cbb438e	0.022859361
115	0x3e9e918e	0.30970424
116	0x3ed3e27b	0.41383728
117	0xbde2bf2b	-0.11071619
118	0xbe1dcf7e	-0.15411183
119	0xbe8f0195	-0.27930894
120	0xbdeaee2b	-0.11471208
121	0xbe3c8606	-0.18410501
122	0xbe0b2e83	-0.13591962
123	0x3cdca4b7	0.02693401
124	0xbd77c721	-0.06049264
125	0xbcfc889e	-0.030826863
126	0x3da4a966	0.08040123
127	0x3eb47900	0.35248566
128	0x3e122e45	0.14275463
129	0x3e2c3467	0.16816865
130	0x3e17a080	0.1480732
131	0xbda56c46	-0.08077292
132	0xbe4c1a63	-0.1993194
133	0x3e032419	0.12806739
134	0x3ec80192	0.39063698
135	0x3ed51a82	0.41621786
136	0x3e66712d	0.2250411
137	0x3f177f77	0.5917887
138	0xbe2ed088	-0.17071736
139	0xbebe97b8	-0.37225127
140	0xbca42d60	-0.020041168
141	0x3cde2056	0.027115028
142	0x3bba71cd	0.0056898356
143	0xbd1b270e	-0.037879042
144	0xbd3b681a	-0.045753576
145	0xbe3f2544	-0.1866656
146	0xbda09198	-0.0784027
147	0xbd6453af	-0.05574387
148	0xbe07edfe	-0.1327438
149	0x3b9a6c61	0.004712627
150	0x3d26e6df	0.04074752
151	0x3db7fc84	0.089837104
152	0x3df410c1	0.11917258
153	0x3d73a5e3	0.059484374
154	0xbba8d353	-0.005152145
155	0xbb98f551	-0.004667916
156	0x3cd67668	0.026179507
157	0xbc9eeb62	-0.019399349
158	0xbe2a7445	-0.16645916
159	0xbd8f17b1	-0.06986941
160	0x3e3bcc30	0.1833961
161	0xbe3c1a56	-0.18369421
162	0xbca860a5	-0.020553896
163	0x3dc4287f	0.095780365
164	0x3e51ce7c	0.20488924
165	0x3ed64969	0.41852883
166	0xbd809808	-0.06278998
167	0xbd419f9c	-0.047271356
168	0x3ca0da1a	0.019635249
169	0x3d5971fc	0.05308722
170	0x3eb4b772	0.35296208
171	0xbe2dd5cb	-0.16976087
172	0x3e5d5557	0.21614586
173	0xbc928d94	-0.017889775
174	0xbe58de38	-0.2117852
175	0xbe2ebd2e	-0.17064354
176	0xbbfa8dc3	-0.007646294
177	0xbd61c463	-0.05511893
178	0x3e44ff90	0.19238114
179	0x3e5ac13f	0.2136278
180	0x3de82042	0.11334278
181	0x3e1fc36c	0.15601891
182	0x3d90f684	0.07078269
183	0xbe15a5c0	-0.1461401
184	0xbe091b5e	-0.13389346
185	0xbd9e92fc	-0.07742879
186	0xbde58d8d	-0.11208639
187	0x3d98a0ba	0.07452531
188	0x3e86553b	0.262369
189	0x3d3b3c02	0.045711525
190	0xbd8c6d82	-0.068568245
191	0xbe0d732d	-0.13813467
192	0x3d44d16f	0.048051294
193	0x3ea7db7b	0.32784638
194	0xbe1686af	-0.14699815
195	0x3d65e1be	0.056123488
196	0xbcafd06c	-0.021461688
197	0x3c67dc19	0.014151596
198	0x3ea40346	0.32033747
199	0xbe9f4c0c	-0.31112707
200	0xbe086d64	-0.13322979
201	0xbcb1dc02	-0.021711353
202	0xbcedb12d	-0.029015148
203	0xbdc3a33b	-0.09552618
204	0xbd06de18	-0.03292665
205	0xbd1874c7	-0.037220743
206	0xbda15190	-0.07876885
207	0xbe60faf1	-0.21970727
208	0xbe345def	-0.17613958
209	0xbd3a5e9b	-0.04550038
210	0x3daaa595	0.083323635
211	0xbd0eab41	-0.03483129
212	0x3d88922a	0.066685036
213	0x3cb5f16d	0.022209847
214	0x3d3580d6	0.04431232
215	0x3e586655	0.21132787
216	0x3e7b6432	0.2454994
217	0x3d809ef5	0.06280319
218	0x3d2aa873	0.041664552
219	0xbdc7026a	-0.09717257
220	0x3e3ca104	0.18420798
221	0x3e03cfbb	0.12872212
222	0xbce73d68	-0.028227523
223	0x3e408ec1	0.18804456
224	0xbb81c70e	-0.0039604967
225	0xbd6f15ed	-0.05837052
226	0x3e32d501	0.17464067
227	0x3e60fa05	0.21970375
228	0x3e043c74	0.12913686
229	0x3e8342b0	0.25636816
230	0x3e8f23a2	0.27956873
231	0x3d96e633	0.07368126
232	0xbbb99786	-0.005663815
233	0xbdb65978	-0.089037836
234	0xbe8d8f21	-0.2764826
235	0xbe7ee098	-0.24890363
236	0xbd9ce71c	-0.07661268
237	0xbc170384	-0.009217147
238	0x3d199d4f	0.037503537
239	0x3dec87ab	0.11549314
240	0x3e5fff21	0.21874668
241	0x3ced61de	0.02897733
242	0xbcb9e418	-0.022691771
243	0x3de1e87b	0.1103067
244	0x3d82829f	0.0637257
245	0x3ce0a2db	0.027421406
246	0x3d7706f9	0.060309384
247	0xbd39db0d	-0.04537492
248	0x3e5219a1	0.20517589
249	0xbb8dca09	-0.004327063
250	0xbe930e72	-0.28721958
251	0x3d808a5c	0.0627639
252	0xbceee982	-0.02916408
253	0xbd48b94c	-0.049004838
254	0x3f04c8b4	0.5186875
255	0x3ec86ed8	0.39147067

in_function.bias f4 [256]
0	0xbd75ac1d	-0.059978593
1	0x3e04011c	0.12891048
2	0x3e1b47c6	0.15164098
3	0x3cbfdbeb	0.023420295
4	0xbcd049de	-0.025425848
5	0x3e7bff02	0.24608997
6	0x3e0a63d7	0.13514648
7	0xbd03f622	-0.032217152
8	0xbd509d71	-0.050931398
9	0xbddd9ff0	-0.10821521
10	0xbe5fa032	-0.21838453
11	0xbd34cb75	-0.044139344
12	0xbd8e996c	-0.06962857
13	0xbcc9e215	-0.024643937
14	0xbda9e8a9	-0.082963295
15	0xbdc5911d	-0.09646819
16	0x3c1b4ef0	0.009479269
17	0xbb8fb620	-0.0043857247
18	0xbdab5730	-0.08366239
19	0xbbeb3bd8	-0.007178765
20	0xbd94f1a2	-0.0727265
21	0xbe5354c4	-0.20637804
22	0x3d7531c7	0.059861924
23	0x3ccca5ba	0.024981368
24	0x3eaae16c	0.33375108
25	0x3dfe3fc0	0.12414503
26	0x3e083009	0.13299574
27	0xbd53156f	-0.051534113
28	0xbcb0cb27	-0.021581246
29	0x3de75a26	0.11296491
30	0xbc5b795d	-0.0133956345
31	0xbdbfbc7c	-0.093621224
32	0x3dfc1946	0.12309508
33	0x3cc8d22a	0.024514277
34	0x3dc5e03b	0.09661909
35	0xbe45d6b1	-0.1932018
36	0xbca038ad	-0.019558275
37	0x3c9654fb	0.018351069
38	0xbdf997b7	-0.121871404
39	0x3e0d5ce5	0.13804968
40	0xbe4036e8	-0.18770945
41	0x3d31aa09	0.04337505
42	0xbdb308e5	-0.08741931
43	0x3e3b7419	0.18306006
44	0xbc9250a6	-0.017860722
45	0x3db00fd1	0.08596767
46	0xbe098eac	-0.13433331
47	0x3b78b844	0.0037951628
48	0x3d8c4542	0.068491474
49	0xbdd3f80f	-0.10350048
50	0x3e44f559	0.19234218
51	0x3d7c81f1	0.06164736
52	0xbce22932	-0.027607534
53	0xbe5b1ce0	-0.21397734
54	0x3dc68499	0.0969326
55	0x3c8cf696	0.017207425
56	0xbceb8762	-0.028751079
57	0xbc842eaa	-0.016135532
58	0x3e722ef9	0.23650731
59	0xbcbd5a08	-0.02311422
60	0xbd413adf	-0.047175284
61	0x3df07579	0.11741156
62	0x3d859241	0.06522036
63	0x3e219fc5	0.15783603
64	0xbd8bf039	-0.06832928
65	0xbb88f46b	-0.0041795275
66	0xbd4e90b3	-0.050430965
67	0x3e08e14f	0.13367198
68	0x3d941fdb	0.072326384
69	0xbe0d9304	-0.13825613
70	0xbdb70024	-0.08935574
71	0xbdabdeff	-0.083921425
72	0x3dc51320	0.096227884
73	0xbd85bc74	-0.06530085
74	0xbd96378f	-0.07334816
75	0x3ca9e6a5	0.020739863
76	0x3ed440dd	0.41455737
77	0xbd9f8f5c	-0.077910155
78	0x3e0daf7d	0.13836475
79	0xbdab86bb	-0.08375307
80	0xbe54e2c9	-0.20789637
81	0xbb8bfeee	-0.0042723333
82	0x3dedb390	0.116065145
83	0x3d43d194	0.04780729
84	0xbdc13586	-0.09434037
85	0x3e09a518	0.13441885
86	0x3e25113c	0.16119856
87	0xbd82ccee	-0.063867435
88	0xbd35edf7	-0.044416394
89	0x3e284955	0.16434224
90	0x3e7c0264	0.24610287
91	0xbd62a078	-0.055328816
92	0xbd2b0e3a	-0.041761614
93	0x3d94c8a6	0.07264833
94	0xbce07c54	-0.027403034
95	0xbc7b6647	-0.015344209
96	0x3de3ba6a	0.1111954
97	0x3e572a57	0.21012245
98	0x3dfa03ee	0.12207781
99	0x3e3171a2	0.17328504
100	0x3dd829e0	0.10554862
101	0xbdd8a082	-0.105774894
102	0x3cd7ed9c	0.026358418
103	0xbda7c62f	-0.081920974
104	0xbd6fb366	-0.058520697
105	0x3e87d146	0.2652685
106	0x3d3385f8	0.043828934
107	0xbd20514a	-0.039140023
108	0xbd3bab96	-0.045817934
109	0x3cc5ab2d	0.024129475
110	0x3c1a8ae4	0.009432528
111	0xbb6f87c9	-0.003654944
112	0xbd20796b	-0.039178293
113	0x3de32696	0.11091344
114	0x3e31fe23	0.17382102
115	0x3e3a2dab	0.18181483
116	0x3b146633	0.0022643923
117	0xbdfdbf93	-0.123900555
118	0x3e18ab8e	0.14909193
119	0x3dbede56	0.09319751
120	0x3da58603	0.08082201
121	0xbe3309c1	-0.1748419
122	0x3ecdc500	0.40189362
123	0x3dab40d1	0.08361972
124	0x3e3deb16	0.1854671
125	0x3d9bd3e0	0.07608771
126	0xbe05a7c7	-0.13052283
127	0x3ddb4847	0.10707145
128	0xbe488198	-0.19580686
129	0xbdd72d61	-0.10506702
130	0xbcb2d657	-0.02183072
131	0x3e1171ae	0.14203522
132	0xbe26ead8	-0.16300523
133	0xbd1263b0	-0.0357396
134	0x3e7a9b50	0.2447331
135	0x3da385cf	0.07984506
136	0xbb6d77c4	-0.0036234716
137	0x3d8dfc18	0.06932849
138	0x3c5c4609	0.013444432
139	0xbda5ef72	-0.08102311
140	0xbd9bcd70	-0.076075435
141	0x3e72afa7	0.23699819
142	0xbd72ab36	-0.05924531
143	0xbe1c72c2	-0.15278152
144	0xbd83883e	-0.064224705
145	0x3ec2816d	0.3798937
146	0xbd87e628	-0.06635696
147	0x3e88870f	0.26665542
148	0xbda392d2	-0.07986988
149	0xbe3238d2	-0.17404488
150	0x3bf1e0f7	0.007381554
151	0x3e463dac	0.19359463
152	0x3de7a64a	0.11311014
153	0x3e36bf08	0.1784631
154	0x3e1a7c7d	0.15086551
155	0xbd028848	-0.03186825
156	0xbde6e545	-0.112741984
157	0xbe275373	-0.16340427
158	0x3c5f0d14	0.013613958
159	0xbd1afd5c	-0.03783928
160	0x3e1de47d	0.15419193
161	0x3e58e79c	0.21182102
162	0x3e27fce6	0.16405067
163	0xbc1ab8e9	-0.0094435
164	0xbe01c045	-0.12671001
165	0xbe052a64	-0.13004452
166	0x3e160c2e	0.14653084
167	0xbe3327f7	-0.17495714
168	0x3c874d29	0.016516285
169	0x3b8474a9	0.0040422273
170	0xbe3dc1f6	-0.18531021
171	0x3e111e5d	0.14171739
172	0x3d065e27	0.032804634
173	0x3dba476d	0.09095655
174	0x3cedc27e	0.029023405
175	0xbd203f62	-0.039122947
176	0x3e396383	0.18104367
177	0xbc2dbc8c	-0.010604035
178	0x3dcac155	0.099001564
179	0x3dfd2dc3	0.12362244
180	0x3d84ae99	0.06478614
181	0x3e6ffe49	0.23436846
182	0xbd2e7dbb	-0.042600375
183	0xbd9fa14d	-0.077944376
184	0x3c5474ab	0.012967269
185	0xbcee18f7	-0.029064639
186	0x3bed627f	0.0072444077
187	0x3e5c6373	0.21522312
188	0xbe4c4717	-0.19948994
189	0x3c27adfe	0.010234354
190	0xbd4fa83a	-0.050697543
191	0x3dd32e19	0.10311527
192	0xbdfe8325	-0.124273576
193	0x3e5c904b	0.21539418
194	0x3e16f3f2	0.14741495
195	0x3db0ef03	0.08639338
196	0xbd3fe2ab	-0.046847027
197	0x3da42141	0.08014155
198	0x3d788561	0.060674075
199	0x3da33b39	0.0797028
200	0x3e3d1c55	0.18467839
201	0x3e9d099b	0.3067139
202	0x3e078baf	0.13236879
203	0xbc8b5ac8	-0.017011061
204	0x3e4ccbd4	0.1999963
205	0x3d280061	0.041015986
206	0x3bf274de	0.0073991856
207	0x3d2c1f34	0.042021945
208	0x3d62104f	0.055191334
209	0x3aa4b13b	0.0012565026
210	0xbe309038	-0.17242515
211	0x3d7d810c	0.061890647
212	0x3e14bfe1	0.14526321
213	0x3e8d01ad	0.2754034
214	0x3e1a13ee	0.15046665
215	0x3d40531f	0.04695427
216	0xba16eb24	-0.00057570846
217	0xbe1ec1a0	-0.1550355
218	0x3bc1c9b2	0.0059139365
219	0x3dd83d8d	0.10558615
220	0x3dfb720f	0.12277614
221	0xbcb561ae	-0.022141304
222	0xbdc45e52	-0.09588303
223	0xbd6d386f	-0.057915147
224	0x3da3bae8	0.07994634
225	0xbd21ed11	-0.039532725
226	0xbdcb5094	-0.099274784
227	0xbe393378	-0.1808604
228	0x3e8d3a82	0.275837
229	0xbe38830b	-0.18018739
230	0xbe052892	-0.13003758
231	0x3da8d460	0.08243632
232	0x3cb6e037	0.02232371
233	0xbe89f30c	-0.26943243
234	0x3e43e191	0.19129016
235	0xbcae6c31	-0.021291824
236	0xbe670723	-0.22561316
237	0x3c0fa368	0.008766986
238	0xbe4182a0	-0.18897486
239	0xbcb11091	-0.021614345
240	0xbd10fdcb	-0.035398286
241	0x3a236910	0.0006233612
242	0x3dcf32be	0.101171
243	0xbd085019	-0.033279512
244	0x3d9f996f	0.07792937
245	0xbca28caf	-0.019842474
246	0x3c83a5d8	0.016070291
247	0xbd2c7d50	-0.042111695
248	0xbce92c4d	-0.028463507
249	0xbd1facd0	-0.038983166
250	0x3d0f9c01	0.035060886
251	0xbdaefd2d	-0.08544383
252	0x3e36ae07	0.17839824
253	0xbdb6b3c7	-0.089210086
254	0x3e21d4eb	0.15803878
255	0x3e88a48c	0.2668804

out_function.weight f4 [10, 256]
0	0xbf58c26f	-0.8467168
1	0x3dc36183	0.09540083
2	0x3e675be7	0.22593652
3	0xbd9ae57b	-0.07563301
4	0xbe329299	-0.17438735
5	0xbf1c096e	-0.6095189
6	0xbf39c1c5	-0.72561294
7	0x3e4592a3	0.19294219
8	0x3d5136c5	0.051077623
9	0xbe2435ff	-0.16036223
10	0xbef5e6c2	-0.48027617
11	0xbd3e26ad	-0.046423603
12	0x3ebe940b	0.37222323
13	0x3dc3989d	0.09550593
14	0x3e722e05	0.23650368
15	0x3dd72fe6	0.10507183
16	0x3d45379d	0.04814874
17	0xbcb86844	-0.022510655
18	0xbe826193	-0.25465068
19	0xbe8e21a8	-0.27760053
20	0xbf36c7e0	-0.71398735
21	0x3e645e7f	0.22301672
22	0x3e59e276	0.21277794
23	0x3ee799cf	0.45234534
24	0x3d8ae855	0.06782595
25	0x3ce8d052	0.028419647
26	0xbc95e8c4	-0.018299468
27	0x3ded6bec	0.1159285
28	0x3dc14915	0.094377674
29	0xbf143e73	-0.5790779
30	0xbeed4cc3	-0.46347627
31	0x3e89740b	0.26846346
32	0x3e5a0bd7	0.21293579
33	0x3d9411ea	0.07229979
34	0x3d774318	0.06036672
35	0x3e5c5840	0.2151804
36	0x3e0578d4	0.13034374
37	0x3e415f3b	0.18883984
38	0x3e14cf8d	0.145323
39	0xbf9dc32e	-1.2325189
40	0x3e4d1235	0.20026477
41	0x3e7bf7fe	0.2460632
42	0x3e88130c	0.26577032
43	0x3d539553	0.05165608
44	0x3af9c26a	0.0019055132
45	0xbd1aec1d	-0.03782283
46	0xbf0d1501	-0.55110174
47	0x3db6631f	0.089056246
48	0xbec8740c	-0.39151037
49	0xbef7882c	-0.48346078
50	0xbef53a99	-0.4789627
51	0xbf0f5d50	-0.5600176
52	0xbe7cfc98	-0.24705732
53	0x3d11ccfd	0.035595883
54	0x3c6aa1c0	0.014320791
55	0x3db375e6	0.08762722
56	0x3e3a9b71	0.18223359
57	0xbd56e138	-0.05246088
58	0x3eb37a3d	0.35054198
59	0x3d06ef9f	0.032943364
60	0xbea96b84	-0.3308984
61	0xbe552fba	-0.20818987
62	0xbd7d2ecc	-0.061812207
63	0x3e85258f	0.26005217
64	0xbe919db4	-0.2844063
65	0x3dd9ed0f	0.106409185
66	0x3ce774dd	0.028253967
67	0xbf427eaa	-0.75974524
68	0xbf334ddd	-0.70040685
69	0x3e4b074e	0.19827005
70	0xbce5ee7c	-0.02806782
71	0xbedd3dee	-0.4321131
72	0xbec095f0	-0.37614393
73	0x3e069889	0.13144125
74	0xbdcf283a	-0.101150945
75	0xbe048be5	-0.1294399
76	0xbe324710	-0.1740992
77	0xbe3c6db2	-0.1840122
78	0x3d01ff92	0.03173787
79	0x3ebe6736	0.3718812
80	0xbee5533f	-0.44790074
81	0x3e6cbdce	0.2311928
82	0xbea79ade	-0.32735342
83	0xbf067bdf	-0.5253276
84	0x3dfb2709	0.12263305
85	0xbf56d65f	-0.83920854
86	0xbeed6f74	-0.46374094
87	0xbf4aa8cc	-0.79163814
88	0x3d8145fd	0.06312177
89	0xbd9292db	-0.07156917
90	0x3dc70b23	0.09718921
91	0x3ddd0b52	0.10793175
92	0xbd805697	-0.06266516
93	0xbce115c5	-0.0274762
94	0xbe89f91a	-0.26947862
95	0x3d68519c	0.056718454
96	0xbf0146fb	-0.5049893
97	0x3d3a77a2	0.045524247
98	0x3c2b563d	0.0104575725
99	0xbf494d5a	-0.78633654
100	0xbf59fa53	-0.8514759
101	0x3d541dd0	0.051786244
102	0x3b814d2a	0.0039459663
103	0xbefca8bf	-0.49347493
104	0xbedacfd1	-0.42736676
105	0xbee93d10	-0.455544
106	0xbefde285	-0.49586883
107	0xbf12a5c1	-0.5728417
108	0x3db555c0	0.08854246
109	0x3e73bab4	0.2380169
110	0xbd5e29df	-0.05423915
111	0x3e9f2709	0.3108447
112	0xbf0c739e	-0.5486392
113	0xbb04862e	-0.002022158
114	0x3e4959ab	0.19663112
115	0x3d8e93af	0.06961762
116	0xbe050c9e	-0.12993094
117	0x3e14de2e	0.1453788
118	0x3e69bd0d	0.22826023
119	0x3dcd8c67	0.10036545
120	0xbf44166d	-0.7659672
121	0x3e6a475a	0.22878781
122	0xbe93fdf6	-0.28904694
123	0xbf1e4f22	-0.618395
124	0x3e4c0ff9	0.19927968
125	0xbdcd7099	-0.10031242
126	0x3e598894	0.21243507
127	0x3dc81382	0.09769346
128	0x3e2d6086	0.16931352
129	0xbd07b410	-0.033130705
130	0xbccfb8d4	-0.025356688
131	0x3e76594b	0.240575
132	0x3de6dded	0.11272798
133	0x3db7290a	0.089433745
134	0x3e32589a	0.17416611
135	0xbf52a952	-0.8228961
136	0xbeb61939	-0.35566118
137	0x3d2d4d96	0.04231032
138	0x3e785f32	0.24255064
139	0x3dc137df	0.09434485
140	0xbd90b6f5	-0.07066146
141	0xbf49bf16	-0.788072
142	0x3e05254d	0.1300251
143	0x3ee8ed0d	0.45493355
144	0xbd5229b3	-0.0513093
145	0xbe0c69b7	-0.13712202
146	0x3e4f0aec	0.2021901
147	0xbcf9f8dc	-0.030514173
148	0x3ee26d3d	0.44223967
149	0x3cce49df	0.025181709
150	0xbd212f72	-0.039351888
151	0x3e883b71	0.2660785
152	0xbde466cb	-0.11152419
153	0xbe6426ee	-0.22280475
154	0xbef4e4e7	-0.4783089
155	0x3ee41ff9	0.44555643
156	0xbed7a8dd	-0.4212102
157	0x3d9923a3	0.074775
158	0x3db746c1	0.08949042
159	0xbe8791ab	-0.26478323
160	0xbeb52724	-0.35381424
161	0xbefd9242	-0.49525648
162	0xbf2c954a	-0.674153
163	0xbe02fa7e	-0.12790868
164	0xbdbfe860	-0.09370494
165	0x3cdfa519	0.027300404
166	0xbe112ace	-0.14176485
167	0x3db4352e	0.08799206
168	0xbea44cb1	-0.3208976
169	0x3cd91fae	0.026504364
170	0x3d68ce98	0.05683765
171	0x3e17fa81	0.14841653
172	0xbceeb88b	-0.029140731
173	0xbf28b284	-0.65897393
174	0x3d8eb6d4	0.069684654
175	0x3d1ba568	0.03799954
176	0xbe652f0f	-0.22381233
177	0x3ddb8fc0	0.107207775
178	0x3de99e5c	0.11407158
179	0xbe4f732f	-0.20258783
180	0x3dc17619	0.094463535
181	0xbf4617c2	-0.7738
182	0x3d44f3a2	0.04808391
183	0xbf69f804	-0.91394067
184	0xbe599290	-0.21247315
185	0xbc07dd95	-0.008292575
186	0x3d1272af	0.035753902
187	0xbe1bbd0c	-0.15208834
188	0x3e2d84fd	0.16945262
189	0x3d4b1250	0.04957801
190	0x3df21909	0.11821181
191	0xbe47586a	-0.19467321
192	0xbf515d5d	-0.81783086
193	0xbe61f27d	-0.22065158
194	0xbd685892	-0.056725092
195	0x3e94c279	0.2905462
196	0x3e338604	0.17531592
197	0xbea52ced	-0.32260838
198	0xbea263c7	-0.3171675
199	0x3c95b5ba	0.01827513
200	0xbeecf027	-0.46276972
201	0x3bbbd215	0.005731831
202	0x3e806e60	0.2508421
203	0xbd96c92f	-0.073625915
204	0x3f1339cf	0.57510084
205	0xbbee60bf	-0.0072747166
206	0xbf2c4e74	-0.6730721
207	0x3dab2c35	0.08358041
208	0xbeafa61f	-0.34306428
209	0x3d5848e3	0.052803885
210	0x3baaa968	0.005208183
211	0xbeb6381c	-0.35589683
212	0xbf8a3479	-1.0797263
213	0x3c888fe7	0.01667018
214	0x3eba336f	0.36367366
215	0xbed517d4	-0.41619742
216	0x3c8bf65e	0.01708525
217	0x3e10974d	0.14120217
218	0x3e88f0ff	0.26746365
219	0xbe2fb1ed	-0.17157717
220	0x3e855bde	0.26046652
221	0xbd12da14	-0.035852507
222	0xbef2d041	-0.4742451
223	0x3cfa0bb2	0.030523155
224	0xbed7a59e	-0.42118543
225	0x3e4a2718	0.19741476
226	0xbe41d201	-0.18927766
227	0x3ddc00af	0.10742318
228	0xbeb671ca	-0.3563369
229	0x3dae99d8	0.08525437
230	0x3e3cd62b	0.18441074
231	0xbde4f795	-0.11180035
232	0x3d6e7613	0.058218073
233	0xbf1be283	-0.60892504
234	0x3e5d704c	0.21624869
235	0x3e4a236f	0.1974008
236	0x3cc37269	0.023858266
237	0xbf8c9ea6	-1.0985916
238	0x3e6b1431	0.22956921
239	0x3e1c9f85	0.15295227
240	0x3be73c35	0.007056738
241	0xbc03f075	-0.008052935
242	0x3e63b7ab	0.22238033
243	0x3e2846a0	0.16433191
244	0xbf3e4386	-0.7432178
245	0x3ddc1126	0.10745458
246	0xbec36bcf	-0.3816819
247	0x3df39606	0.11893849
248	0xbd3b305c	-0.045700416
249	0xbe8a5c41	-0.2702351
250	0x3e2a6cec	0.16643113
251	0x3d2a0f55	0.041518528
252	0x3dfd498b	0.12367543
253	0x3e529ff1	0.20568825
254	0x3e6b9ffa	0.23010245
255	0xbe8d74ae	-0.27628082

out_function.bias f4 [10]
0	0xbe283588	-0.1642667
1	0xbd793b4d	-0.06084757
2	0xbdf349d7	-0.11879318
3	0xbdb9fe1d	-0.090816714
4	0x3e51b550	0.20479321
5	0x3d31e735	0.043433387
6	0xbcd8c5b4	-0.02646146
7	0xbda949ed	-0.08266053
8	0x3e9fe1e2	0.31227022
9	0xbc780c4e	-0.015139652
